…
Best method: Grid Search  (CV F1-Macro 0.9670)
Params: {'batch_size': 32, 'model__activation': 'relu', 'model__dropout_rate': 0.2, 'model__hidden_layers': [256, 128, 64, 32], 'model__l2': 0.0, 'optimizer__learning_rate': 0.0001}

--- Final Training [Grid Search params] ---
Model: "sequential"
┏━━━━━━━━━━━━━━━━━━━━━━━━━━━━━━━━━━━━━━┳━━━━━━━━━━━━━━━━━━━━━━━━━━━━━┳━━━━━━━━━━━━━━━━━┓
┃ Layer (type)                         ┃ Output Shape                ┃         Param # ┃
┡━━━━━━━━━━━━━━━━━━━━━━━━━━━━━━━━━━━━━━╇━━━━━━━━━━━━━━━━━━━━━━━━━━━━━╇━━━━━━━━━━━━━━━━━┩
│ dense (Dense)                        │ (None, 256)                 │         750,080 │
├──────────────────────────────────────┼─────────────────────────────┼─────────────────┤
│ dropout (Dropout)                    │ (None, 256)                 │               0 │
├──────────────────────────────────────┼─────────────────────────────┼─────────────────┤
│ dense_1 (Dense)                      │ (None, 128)                 │          32,896 │
├──────────────────────────────────────┼─────────────────────────────┼─────────────────┤
│ dropout_1 (Dropout)                  │ (None, 128)                 │               0 │
├──────────────────────────────────────┼─────────────────────────────┼─────────────────┤
│ dense_2 (Dense)                      │ (None, 64)                  │           8,256 │
├──────────────────────────────────────┼─────────────────────────────┼─────────────────┤
│ dropout_2 (Dropout)                  │ (None, 64)                  │               0 │
├──────────────────────────────────────┼─────────────────────────────┼─────────────────┤
│ dense_3 (Dense)                      │ (None, 32)                  │           2,080 │
├──────────────────────────────────────┼─────────────────────────────┼─────────────────┤
│ dropout_3 (Dropout)                  │ (None, 32)                  │               0 │
├──────────────────────────────────────┼─────────────────────────────┼─────────────────┤
│ dense_4 (Dense)                      │ (None, 5)                   │             165 │
└──────────────────────────────────────┴─────────────────────────────┴─────────────────┘
 Total params: 793,477 (3.03 MB)
 Trainable params: 793,477 (3.03 MB)
 Non-trainable params: 0 (0.00 B)

Training final model...
Epoch 1/100
30/30 ━━━━━━━━━━━━━━━━━━━━ 1s 8ms/step - accuracy: 0.5528 - loss: 1.1140 - val_accuracy: 0.9480 - val_loss: 0.3364
Epoch 2/100
30/30 ━━━━━━━━━━━━━━━━━━━━ 0s 4ms/step - accuracy: 0.8623 - loss: 0.4892 - val_accuracy: 0.9777 - val_loss: 0.1557
…
