…
Best method: Grid Search  (CV F1-Macro 0.9666)
Params: {'batch_size': 16, 'model__activation': 'relu', 'model__dropout_rate': 0.2, 'model__hidden_layers': [256, 128, 64, 32], 'model__l2': 0.01, 'optimizer__learning_rate': 0.0001}
--- Final Training [Grid Search params] ---
Model: "sequential"
┏━━━━━━━━━━━━━━━━━━━━━━━━━━━━━━━━━━━━━━┳━━━━━━━━━━━━━━━━━━━━━━━━━━━━━┳━━━━━━━━━━━━━━━━━┓
┃ Layer (type)                         ┃ Output Shape                ┃         Param # ┃
┡━━━━━━━━━━━━━━━━━━━━━━━━━━━━━━━━━━━━━━╇━━━━━━━━━━━━━━━━━━━━━━━━━━━━━╇━━━━━━━━━━━━━━━━━┩
│ dense (Dense)                        │ (None, 256)                 │         811,008 │
├──────────────────────────────────────┼─────────────────────────────┼─────────────────┤
│ dropout (Dropout)                    │ (None, 256)                 │               0 │
├──────────────────────────────────────┼─────────────────────────────┼─────────────────┤
│ dense_1 (Dense)                      │ (None, 128)                 │          32,896 │
├──────────────────────────────────────┼─────────────────────────────┼─────────────────┤
│ dropout_1 (Dropout)                  │ (None, 128)                 │               0 │
├──────────────────────────────────────┼─────────────────────────────┼─────────────────┤
│ dense_2 (Dense)                      │ (None, 64)                  │           8,256 │
├──────────────────────────────────────┼─────────────────────────────┼─────────────────┤
│ dropout_2 (Dropout)                  │ (None, 64)                  │               0 │
├──────────────────────────────────────┼─────────────────────────────┼─────────────────┤
│ dense_3 (Dense)                      │ (None, 32)                  │           2,080 │
├──────────────────────────────────────┼─────────────────────────────┼─────────────────┤
│ dropout_3 (Dropout)                  │ (None, 32)                  │               0 │
├──────────────────────────────────────┼─────────────────────────────┼─────────────────┤
│ dense_4 (Dense)                      │ (None, 5)                   │             165 │
└──────────────────────────────────────┴─────────────────────────────┴─────────────────┘
 Total params: 854,405 (3.26 MB)
 Trainable params: 854,405 (3.26 MB)
 Non-trainable params: 0 (0.00 B)

Training final model...
Epoch 1/100
59/59 ━━━━━━━━━━━━━━━━━━━━ 1s 6ms/step - accuracy: 0.6542 - loss: 8.6254 - val_accuracy: 0.9665 - val_loss: 7.8184
Epoch 2/100
59/59 ━━━━━━━━━━━━━━━━━━━━ 0s 3ms/step - accuracy: 0.8559 - loss: 7.9521 - val_accuracy: 0.9777 - val_loss: 7.5023
…
